model.pth (torch, 903272 bytes, 6 tensors)

fc.weight f4 [3, 25000]
000000 57 98 24 be 1c 21 77 be 50 25 27 be cd 12 14 bb
       -0.16073738 -0.24133724 -0.16322827 -0.0022594214
000010 ed 2e fb bd 03 7c b1 bd 41 ac 0c 3e 33 f3 25 3c
       -0.1226481 -0.086662315 0.13737585 0.010128784
000020 2c 27 ab bc 07 c6 11 be 60 e9 d5 be f9 9b 38 bc
       -0.020892702 -0.14235698 -0.41779613 -0.0112676555
000030 0a b5 e2 be 20 14 19 be 6b f2 5d bf cc 09 71 bd
       -0.44278747 -0.14949083 -0.86698025 -0.058847234
000040 0e 4d 2b be 8e aa 9f 3e 60 fa 4f be 6e e1 78 3e
       -0.16728613 0.3118481 -0.20310354 0.24304745
000050 7a 5e eb bd 44 aa 80 be bb 61 1c be 2f 40 d5 3d
       -0.11492629 -0.25129902 -0.15271656 0.10412633
000060 0e 3e 89 be c3 10 2b be 1a 8d 47 bf bb 89 a3 bd
       -0.26805156 -0.16705613 -0.7794968 -0.079852544
000070 6b 1e 29 bc dc af 83 bd 82 20 29 3d 9e f5 8d 3d
       -0.010322194 -0.06430027 0.041290767 0.069316134
000080 df 2c 95 be 10 c2 8d be d0 57 9b bd 89 8e 28 3d
       -0.29135796 -0.2768712 -0.07585108 0.041151557
000090 f6 6a 62 3d b1 dd 6c 3e fe 41 bb 3d 28 ce a9 be
       0.055277787 0.23131444 0.091434464 -0.33165097
0000a0 d4 24 b7 bd e3 9e c5 be 9e 8c b3 be 15 46 c0 3c
       -0.08942571 -0.38597783 -0.3506822 0.023470918
0000b0 63 b6 7e bc 38 88 87 bd 35 bd 8f be 0c 5e a5 be
       -0.015546414 -0.066177785 -0.2807404 -0.32298315
0000c0 cf 47 1f be 86 d5 e4 be 7a e7 b8 bd cc ac eb be
       -0.15554737 -0.44694155 -0.09028526 -0.4603027
0000d0 f8 8a b3 3d 13 92 93 be 9a e7 52 be 7e fe a4 bc
       0.087667406 -0.28822383 -0.20596161 -0.020140883
0000e0 8b 97 b3 bd 2d 54 c6 bd e1 8b 4f be e9 ad 93 be
       -0.08769139 -0.09684024 -0.20268203 -0.2884362
0000f0 2f 23 bd bc ec 63 be be ee b3 51 3d 57 1d 6b be
       -0.023088066 -0.3718561 0.051196985 -0.22960411
000100 30 f8 13 bd 5f c3 63 bd 19 10 07 3e 2c 28 8e be
       -0.036125362 -0.055606242 0.13189735 -0.27765024
000110 cc 5b 45 bc b4 3a b7 3d d3 d7 1e 3e d4 5d e0 be
       -0.012045812 0.089467436 0.15512018 -0.43821585
000120 63 6f 85 bd 5f b4 51 3e d9 e5 53 bd 30 e7 e7 be
       -0.06515386 0.20478962 -0.05173287 -0.4529357
000130 73 6a 64 3e 7c af fb bd 5d c7 95 bd fb fb ca bd
       0.22306232 -0.1228933 -0.07313416 -0.09911343
000140 dc d7 5b 3e 35 b4 37 be ff 79 1b 3d 31 ac c2 be
       0.21469063 -0.17939837 0.03795814 -0.38021997
000150 04 af 73 be 09 60 a2 bd 44 d6 09 3e 62 db 5f be
       -0.23797232 -0.079284735 0.13460642 -0.21861032
000160 de ee bf 3d 0e bb 75 be 44 83 69 be db 40 c5 bd
       0.09371732 -0.23997137 -0.2280398 -0.09631511
000170 8d 9f 1a be 1a 06 f0 3d 0e 29 71 3d 49 40 81 3d
       -0.15099926 0.11719914 0.058877043 0.063110895
000180 e5 b7 a4 be 44 d7 ec be f0 f6 9f 3e f3 b6 ac 3e
       -0.3217155 -0.46257985 0.31243086 0.3373333
000190 68 e9 a3 be cf da 09 3d c6 cf e3 be 43 e7 f0 bd
       -0.32014012 0.033655938 -0.44494456 -0.1176286
0001a0 b2 8b 1d 3e c4 04 ca be 13 09 f1 be 6d 24 dc bd
       0.15385321 -0.3945676 -0.47077236 -0.10749135
0001b0 5c 60 af bd 00 dc 41 3e 24 99 55 bd e6 48 de 3d
       -0.08563301 0.1893158 -0.052148 0.10853748
0001c0 d9 4f 53 bc 7b 00 bc 3d d4 52 9c 3d bc de cc 3c
       -0.012897455 0.09179779 0.07632986 0.025008552
0001d0 a9 ad c0 3e a2 f7 ac be de 68 47 3d ae 72 0b bf
       0.37632492 -0.3378268 0.048683994 -0.5447186
0001e0 80 6a 96 be bd 9a 9f be 0b b4 b3 be 2e 7b 59 bd
       -0.29378128 -0.31172743 -0.350983 -0.05309599
0001f0 03 5c bf 3a e3 f6 ed bd 8e 61 d0 bd 24 15 1d be
       0.0014599565 -0.116193555 -0.10174857 -0.15340096
000200 a9 aa 0e 3d 77 4d cb 3c fc 02 b3 bd 55 51 2a be
       0.034830723 0.024817212 -0.087408036 -0.16632588
000210 c1 c3 93 3d 14 4c 80 be fd 8e 12 be 9f b5 14 bd
       0.072150715 -0.25058043 -0.14312358 -0.03630602
000220 87 06 6b be 7e 0e 32 be 5e 51 aa 3d 82 6c 3b be
       -0.22951709 -0.17388341 0.08316301 -0.18303111
000230 00 bc a2 be b3 12 b0 bd 39 dc 3f be 40 3a 76 3d
       -0.31784058 -0.085973166 -0.18736352 0.060114145
000240 19 7b 0e 3d e1 63 f9 3d 0b c8 79 3d c9 2f 8f be
       0.034785364 0.121772535 0.06098179 -0.27966145
000250 e5 80 98 3e 8e 13 d1 be 69 07 c7 bc 6b ff 37 3e
       0.2978584 -0.40835232 -0.024295526 0.17968528
000260 b1 a3 93 be c5 a1 06 be 5a 97 de be 09 ce 20 be
       -0.28835824 -0.13147648 -0.43474847 -0.15703596
000270 71 dc 21 bd 73 22 5e be 74 a3 1d be 5b 48 6f 3e
       -0.03951687 -0.21692829 -0.15394384 0.23367445
000280 82 17 ad bc 19 ef 1f 3e bf 30 9c be b3 18 85 be
       -0.021129373 0.15618552 -0.3050594 -0.25995407
000290 e9 60 95 be 39 cd 07 bf aa 7e d7 3e bc 03 dc be
       -0.291755 -0.5304752 0.42088825 -0.429716
0002a0 e5 81 8f 3e 84 6d 8f be 1d ca 03 3d 99 8e c8 be
       0.2802879 -0.2801324 0.032175172 -0.39171293
0002b0 59 02 1a 3d ee 61 a2 be 34 b7 8d bd 64 08 73 be
       0.037599895 -0.3171534 -0.06919709 -0.2373367
0002c0 da ec 0f be 1d 05 82 be e1 12 e8 bd d2 ea 2d 3c
       -0.14055195 -0.25394526 -0.11331726 0.010615068
0002d0 d4 a5 86 bd af 64 5c 3c 72 15 10 bd 1b a5 1d bc
       -0.06574598 0.013451739 -0.0351767 -0.009621884
0002e0 c6 cc 04 be 90 9a 08 bf d0 00 97 3d d6 35 5f bf
       -0.1296874 -0.53360844 0.07373202 -0.8719152
0002f0 a1 5f 40 be 9c c7 77 bd c8 63 9e be 8f 58 12 be
       -0.1878648 -0.060493097 -0.30935502 -0.14291595
000300 55 83 9a 3e 03 d4 ad 3c 40 8b 2c 3e 97 73 e0 3d
       0.30178323 0.02121926 0.16849995 0.10959547
000310 35 71 74 bd f9 fb 9c be b4 db 80 3d 87 de 4c 3c
       -0.059678275 -0.3066099 0.06291905 0.0125042265
000320 1a cf 01 be 93 aa 9f be 76 ce 3e be 2c d5 a7 3e
       -0.12676659 -0.31184825 -0.18633446 0.32779825
000330 a1 81 ed 3b a0 74 81 3d ca fd cf be a1 4f 63 be
       0.007248119 0.063210726 -0.40623313 -0.22198345
000340 e5 5e 11 3e 7f 57 cc bd 09 19 26 3e 58 9a 98 bd
       0.14196356 -0.09977626 0.16220488 -0.07451314
000350 e8 4b a0 be 58 58 ee bd 09 48 b7 be 67 88 c7 3d
       -0.31307912 -0.11637944 -0.35797146 0.097428136
000360 b8 12 7b 3c c1 0a b1 bc 52 51 59 3d 3c 2a 7b be
       0.015324287 -0.021611573 0.05305607 -0.2452783
000370 a1 7a 4e be 45 fa f1 bd bf d8 cb be 7e c8 9a be
       -0.20163967 -0.11815313 -0.39813802 -0.30231088
000380 98 9d 98 be 2e f2 5f be 46 8d 6b 3e 91 e0 b3 be
       -0.29807734 -0.21869728 0.2300311 -0.35132268
000390 58 bf dc bd d7 39 81 be 4a b2 9f bb 7b b2 a3 bc
       -0.107786834 -0.2523944 -0.0048735486 -0.019982567
0003a0 f2 dc 03 bd e0 12 3a be 1b 13 81 be 2e 2f 8a be
       -0.03219313 -0.18171263 -0.2520989 -0.2698912
0003b0 eb 27 9f 3a 41 24 ac bd cc 5a ae be 7e f3 17 bd
       0.0012142634 -0.084053524 -0.34053648 -0.037097447
0003c0 8d 2b f8 bc 8e f9 c6 bb 49 89 c0 bd 12 8a 12 be
       -0.030294204 -0.0060722297 -0.09401185 -0.14310482
0003d0 b1 71 76 bd 40 aa 35 be 10 de bf bd 3c 30 af 3c
       -0.06016702 -0.17740726 -0.09368527 0.021385305
0003e0 0a 10 8d be 34 68 a7 bd e1 11 97 3d 31 bd 62 be
       -0.275513 -0.08174172 0.07376457 -0.22142483
0003f0 19 99 2b be f6 54 d5 3d 05 4b d6 bc 67 af 9d 3d
       -0.16757621 0.10416596 -0.026158819 0.07699471

fc.bias f4 [3]
000000 60 4d 89 bf 72 42 fa 3f f3 83 59 bf
       -1.0726738 1.9551528 -0.84966964

exp_avg f4 [3, 25000]
000000 24 1d f0 35 ed 00 5f 06 04 00 00 00 8e a7 5f 39
       1.7889874e-06 4.194232e-35 6e-45 0.00021329356
000010 5f 9a 26 36 85 d1 85 b7 87 f6 4b b0 a9 2e ab a8
       2.4825783e-06 -1.59524e-05 -7.4201306e-10 -1.900505e-14
000020 7a 2b 0b 1d 6f 68 dc 33 fa 1b d0 32 30 a4 1c 23
       1.8418974e-21 1.0263545e-07 2.422711e-08 8.491545e-18
000030 7b a0 3a 26 72 c0 e0 36 ea 7b 8f 33 07 b1 93 35
       6.4749205e-16 6.698124e-06 6.681496e-08 1.1003875e-06
000040 00 59 58 38 d4 11 e7 17 eb 97 80 b3 10 23 95 b5
       5.15813e-05 1.4932526e-24 -5.988098e-08 -1.111157e-06
000050 91 50 37 2c cc 98 e5 b7 29 d9 fb b5 af 47 b4 36
       2.6050587e-12 -2.7370079e-05 -1.8764159e-06 5.372763e-06
000060 d6 06 0b 8a 57 46 3d b5 97 5c 8b 2a b1 98 33 38
       -6.693892e-33 -7.0510345e-07 2.4755607e-13 4.281913e-05
000070 0d 5d fc 9c 79 37 a0 33 cd f8 31 b2 a1 81 de b3
       -1.6700014e-21 7.460671e-08 -1.0359327e-08 -1.036126e-07
000080 af 52 a1 af 75 19 4a 09 ca 00 00 00 a9 b4 8b b2
       -2.934448e-10 2.4326835e-33 2.83e-43 -1.6263884e-08
000090 93 f4 d4 34 5c cc 5d a5 35 2d dd 93 34 e8 9c a9
       3.9666028e-07 -1.9237934e-16 -5.583282e-27 -6.9680725e-14
0000a0 36 4c 69 33 cc ea a4 0c 04 00 00 00 21 dc a3 2f
       5.4318853e-08 2.5409514e-31 6e-45 2.9805938e-10
0000b0 c1 35 f3 36 f6 73 88 25 04 00 00 00 b9 18 2e b1
       7.248222e-06 2.3670817e-16 6e-45 -2.5334386e-09
0000c0 d3 7f 90 37 af 4f 83 12 96 d0 8d 1c 0e 18 5b 35
       1.722566e-05 8.286906e-28 9.384516e-22 8.161886e-07
0000d0 8e d3 fb b5 04 00 00 00 56 dd fb b5 c0 7a 47 2a
       -1.8762528e-06 6e-45 -1.8765375e-06 1.7717338e-13
0000e0 ef fa 40 a3 92 3c b4 29 d0 7e 0a 00 04 00 00 00
       -1.0461478e-17 8.004113e-14 9.63847e-40 6e-45
0000f0 33 bd e3 26 1c 50 6f 39 63 14 90 37 07 3f b8 36
       1.5802572e-15 0.00022822659 1.7175631e-05 5.4909647e-06
000100 04 00 00 00 04 00 00 00 0d 81 16 80 fc df 87 17
       6e-45 6e-45 -2.066676e-39 8.780712e-25
000110 8b 1a 1e 13 fa 11 27 21 d3 fc d6 b7 d8 97 a0 10
       1.995549e-27 5.6605593e-19 -2.5628518e-05 6.3342825e-29
000120 ca e7 3a 29 d9 d1 0d 1c ae 45 95 b9 92 53 56 2e
       4.150134e-14 4.692421e-22 -0.0002847141 4.8732192e-11
000130 a9 b4 8b b2 93 4d ba 2f 18 45 9f 37 56 dd fb b5
       -1.6263884e-08 3.3888323e-10 1.8986451e-05 -1.8765375e-06
000140 d5 89 a3 31 0e 18 5b 35 07 31 9b 30 88 41 d1 37
       4.759594e-09 8.161886e-07 1.1291669e-09 2.4945257e-05
000150 f4 e3 3b 36 28 8b a8 32 04 00 00 00 9a 81 f7 b2
       2.7997858e-06 1.9621055e-08 6e-45 -2.881352e-08
000160 75 5c 6e 99 1e da bc ac 45 31 38 27 3b 77 9d 1f
       -1.2322983e-23 -5.3674972e-12 2.5561839e-15 6.6689337e-20
000170 83 84 21 99 a1 a8 87 25 c1 77 e8 a6 9a 0b 0a 08
       -8.3502654e-24 2.3533034e-16 -1.6130693e-15 4.15415e-34
000180 dd fc 09 1c 00 64 34 28 2c bc 7e b9 cd 69 87 14
       4.5656316e-22 1.0013691e-14 -0.00024293427 1.3673247e-26
000190 7d e2 e0 b3 4d 21 f2 b2 e3 56 32 30 04 00 00 00
       -1.0472011e-07 -2.8187651e-08 6.4879496e-10 6e-45
0001a0 a0 e6 7d 2e 91 69 80 26 3c bd 81 25 04 00 00 00
       5.7730376e-11 8.910398e-16 2.2506163e-16 6e-45
0001b0 56 dd fb b5 56 dd 7b b6 fb 31 d1 36 b0 62 59 31
       -1.8765375e-06 -3.753075e-06 6.234504e-06 3.1633753e-09
0001c0 71 2e 15 96 eb 6d 1b 39 73 ec cc 34 70 56 11 23
       -1.2050778e-25 0.000148229 3.817e-07 7.87877e-18
0001d0 84 3c 99 25 0e b9 aa 34 04 00 00 00 20 66 03 36
       2.6582276e-16 3.1799613e-07 6e-45 1.9579966e-06
0001e0 56 dd fb b5 81 1d b1 38 ec c3 09 27 56 dd fb b5
       -1.8765375e-06 8.445513e-05 1.9118779e-15 -1.8765375e-06
0001f0 f3 71 25 31 56 dd fb b5 1c 64 3b 2c c2 75 9f 36
       2.4075433e-09 -1.8765375e-06 2.662987e-12 4.752278e-06
000200 56 dd fb b5 5f 87 28 22 98 ee 42 38 87 33 65 29
       -1.8765375e-06 2.283991e-18 4.6475412e-05 5.0892907e-14
000210 99 0c 5b 37 45 dd f9 2b fe 3b 65 b8 fb 79 be 33
       1.305635e-05 1.7753929e-12 -5.4653727e-05 8.8697526e-08
000220 04 00 00 00 4d 75 33 24 09 d7 fb 0e fc a0 be 13
       6e-45 3.8913795e-17 6.208335e-30 4.8121486e-27
000230 df 11 42 b4 78 ca a2 b7 2d ea a2 b7 56 dd fb b5
       -1.807416e-07 -1.9406187e-05 -1.9420952e-05 -1.8765375e-06
000240 68 dd fb b5 71 31 3a 32 12 80 ee 1c 6e 82 a1 a9
       -1.8765395e-06 1.0837867e-08 1.5782624e-21 -7.172462e-14
000250 c2 28 4f 2e d0 5b d9 02 ac 3c 3f 1a 20 46 03 00
       4.710255e-11 3.1937982e-37 3.9546885e-23 3.00663e-40
000260 bb 66 52 b8 35 e1 d3 98 85 ed 79 0d 14 00 9f 1c
       -5.0163577e-05 -5.4769623e-24 7.7014953e-31 1.0521758e-21
000270 d0 92 9f 84 ef 89 ff 33 89 ae d7 36 52 99 b7 12
       -3.7515546e-36 1.1899453e-07 6.427818e-06 1.158672e-27
000280 04 00 00 00 03 e1 89 14 48 96 65 04 a6 82 25 38
       6e-45 1.3922216e-26 2.6987826e-36 3.946074e-05
000290 08 ef a6 38 96 6e 8d 17 04 00 00 80 66 14 0f 14
       7.96002e-05 9.139827e-25 -6e-45 7.223678e-27
0002a0 d4 f1 5d 05 2d 90 fd 26 eb 1c 16 b6 fa ef 47 31
       1.0435787e-35 1.759448e-15 -2.2368574e-06 2.9094722e-09
0002b0 3d c0 13 ae eb d8 79 13 3e 99 d7 b1 04 00 00 00
       -3.3594672e-11 3.1535167e-27 -6.274745e-09 6e-45
0002c0 63 1e 24 39 e4 70 bb 8d 04 00 00 00 85 f5 11 03
       0.00015651579 -1.1551942e-30 6e-45 4.2893513e-37
0002d0 b7 3f b8 36 f1 32 50 26 1c 23 08 13 41 c2 f5 2b
       5.4910447e-06 7.2233535e-16 1.7182924e-27 1.7462213e-12
0002e0 21 14 c5 23 04 00 00 00 14 a5 11 b7 c3 95 76 32
       2.1367308e-17 6e-45 -8.681109e-06 1.43531365e-08
0002f0 1d bc 1e 30 6e 81 cf 23 31 09 94 29 1d 71 0e 33
       5.774739e-10 2.24978e-17 6.574115e-14 3.3164827e-08
000300 b9 fa 95 9d 63 b5 ff b8 1c 0c 85 2a 0a ea 57 9d
       -3.9699213e-21 -0.000121931334 2.3633949e-13 -2.8576008e-21
000310 1c 0c 85 2a f2 21 f3 b8 fa 2e eb 04 a4 b4 8b b2
       2.3633949e-13 -0.00011593466 5.5291376e-36 -1.6263876e-08
000320 57 df 26 36 f2 4a 39 34 d9 d1 0d 1c 9a 46 a7 2a
       2.4865928e-06 1.7256733e-07 4.692421e-22 2.971415e-13
000330 70 36 df b0 be a0 fb b5 04 00 00 00 ab 40 b7 2c
       -1.6240858e-09 -1.874774e-06 6e-45 5.2083524e-12
000340 d6 5b ad 38 43 12 00 00 c1 fa 05 2b 4c 5e 46 34
       8.2663886e-05 6.551e-42 4.7599083e-13 1.8474492e-07
000350 21 41 a9 37 3b d7 30 22 80 96 a1 35 68 f7 35 1d
       2.0176698e-05 2.396639e-18 1.2039236e-06 2.4083057e-21
000360 ae 8f 0c 35 f8 a5 48 28 54 d7 85 b9 77 72 c9 22
       5.2363146e-07 1.1138219e-14 -0.0002552817 5.4602354e-18
000370 5b 09 e6 25 d4 d2 a7 a6 5b fe a9 25 3b ba aa 20
       3.990498e-16 -1.1645098e-15 2.9489185e-16 2.8922357e-19
000380 85 36 af 33 34 84 ad 33 78 ef 51 b8 06 dd 94 9e
       8.1589896e-08 8.079988e-08 -5.0052506e-05 -1.5761523e-20
000390 0f da 36 0e 04 00 00 00 16 68 82 26 04 00 00 00
       2.2538223e-30 6e-45 9.048775e-16 6e-45
0003a0 d8 95 9e 9d a9 d3 99 3a 5e 7c 40 26 04 00 00 00
       -4.1977187e-21 0.0011736053 6.678193e-16 6e-45
0003b0 fe 3a b1 9a 10 e0 45 37 ce 41 01 2b 0d 60 2c 30
       -7.330079e-23 1.1794284e-05 4.592133e-13 6.270973e-10
0003c0 69 97 80 b5 32 ae a3 b9 88 6d ab 2c 04 00 00 80
       -9.580809e-07 -0.00031219568 4.8722727e-12 -6e-45
0003d0 50 63 36 13 9d 20 ed 22 bd a6 e4 b6 f1 8e 1b 37
       2.3020594e-27 6.427351e-18 -6.8143404e-06 9.272001e-06
0003e0 44 b3 1c b0 b6 5d 25 35 5c d3 ba 29 1e 12 e0 19
       -5.700722e-10 6.160366e-07 8.296724e-14 2.3168375e-23
0003f0 55 b7 db ad 46 5d 17 2f 64 71 a8 36 f2 4f 85 34
       -2.4978833e-11 1.3766507e-10 5.0199906e-06 2.4831348e-07

exp_avg_sq f4 [3, 25000]
000000 76 03 45 35 ff 75 3f 32 06 b6 f9 2e 81 70 84 36
       7.3393255e-07 1.1144492e-08 1.1355543e-10 3.9470037e-06
000010 18 bf 40 35 23 bf 2f 34 d3 ae 57 34 96 c3 1e 34
       7.180365e-07 1.636768e-07 2.0087036e-07 1.478605e-07
000020 aa ad 12 32 49 a0 9b 33 e5 42 84 30 67 94 81 32
       8.537805e-09 7.246906e-08 9.623277e-10 1.5085062e-08
000030 ca 62 0f 30 fd c8 15 34 97 e1 05 2f 63 e3 84 33
       5.2163485e-10 1.3949825e-07 1.2176425e-10 6.1880904e-08
000040 36 39 fe 31 f7 c6 4b 33 e7 3d c3 33 e3 85 a1 32
       7.398877e-09 4.7445578e-08 9.091655e-08 1.8803751e-08
000050 21 a6 b5 33 c1 9a 07 32 8c 6c aa 32 f0 a5 88 33
       8.458688e-08 7.893221e-09 1.9839966e-08 6.3631774e-08
000060 78 d9 d6 31 24 70 e4 32 1b dd da 30 6d 84 4e 33
       6.252943e-09 2.6593689e-08 1.592443e-09 4.8083553e-08
000070 8c 27 2c 32 9a 01 f3 32 db 2c 42 33 42 3c 6f 34
       1.002071e-08 2.8289652e-08 4.520994e-08 2.2280531e-07
000080 db c0 d2 32 c4 b5 d3 31 4d a1 9b 32 29 4f d8 2f
       2.4534918e-08 6.1615726e-09 1.8117726e-08 3.9346418e-10
000090 70 05 da 33 d7 57 d7 31 90 93 0d 34 6b c1 55 33
       1.0152405e-07 6.26731e-09 1.3185331e-07 4.976884e-08
0000a0 25 68 0e 34 77 e2 27 32 16 d4 c1 31 8e 4c 52 33
       1.3262668e-07 9.7721715e-09 5.6411507e-09 4.896406e-08
0000b0 a0 6a 1c 33 c1 ee f3 30 f3 e0 e3 2f 5a 07 0c 34
       3.6418555e-08 1.7748435e-09 4.1450895e-10 1.304119e-07
0000c0 b0 1b 93 34 27 2d 40 30 2a eb 1b 33 57 ab d5 30
       2.740103e-07 6.991336e-10 3.630263e-08 1.5546487e-09
0000d0 48 19 c0 32 7b b4 ff 2f 56 c6 19 32 11 46 17 32
       2.2363238e-08 4.651247e-10 8.9508685e-09 8.805288e-09
0000e0 a2 d0 42 32 47 1b 40 32 93 b2 45 31 b8 f0 b4 31
       1.1339724e-08 1.1182073e-08 2.876878e-09 5.266056e-09
0000f0 70 26 66 33 dd a5 95 34 5e 9a 79 34 8b 17 a7 34
       5.3586007e-08 2.7874094e-07 2.324609e-07 3.1123304e-07
000100 3d 5b 83 31 7c 93 4e 31 1e 8a 88 2c 9d 35 6a 32
       3.8229744e-09 3.006078e-09 3.8806866e-12 1.3632783e-08
000110 24 32 09 33 44 9f 27 31 73 3e 06 34 e0 e3 4f 31
       3.19434e-08 2.439223e-09 1.2502441e-07 3.0251996e-09
000120 05 8a 80 32 ac c7 6a 30 aa e2 44 34 f7 67 03 31
       1.4963925e-08 8.5412455e-10 1.8336382e-07 1.9122106e-09
000130 88 76 61 31 2e d5 b7 32 e4 99 3d 32 10 89 bd 31
       3.2809186e-09 2.1400947e-08 1.1036239e-08 5.516206e-09
000140 d9 8a 3d 34 a5 14 b1 31 34 5a 41 34 7f 44 a1 34
       1.7652509e-07 5.153725e-09 1.8007341e-07 3.0038424e-07
000150 ee a2 d5 32 54 84 f8 33 c7 96 50 32 a6 b7 81 31
       2.4870555e-08 1.157247e-07 1.2141476e-08 3.7752725e-09
000160 ef c8 3e 31 7a 9f 9b 32 1b 5b 26 34 f3 48 41 33
       2.7762856e-09 1.8116896e-08 1.5493099e-07 4.500266e-08
000170 53 93 1e 31 97 da 09 32 bc b7 71 2f f7 9c 52 32
       2.307577e-09 8.024151e-09 2.1984098e-10 1.22592985e-08
000180 5c 03 c4 2f 9e da 60 2e 8d ae b3 34 c3 18 8a 33
       3.565458e-10 5.1125874e-11 3.346835e-07 6.43063e-08
000190 a2 99 31 33 26 2f 4e 33 e8 5f 9b 30 b8 36 0a 30
       4.1350752e-08 4.8005994e-08 1.1304992e-09 5.028187e-10
0001a0 93 79 cf 32 65 b1 d1 2f 35 4f be 32 11 a4 79 31
       2.4153257e-08 3.8142925e-10 2.215493e-08 3.632753e-09
0001b0 94 86 b9 30 21 45 42 32 dd 59 b2 31 d7 58 7e 32
       1.3498771e-09 1.1308004e-08 5.190698e-09 1.4804946e-08
0001c0 5f 0c bc 32 47 86 fa 34 7a 18 fd 33 79 d4 b5 33
       2.1891706e-08 4.6663828e-07 1.1785683e-07 8.467118e-08
0001d0 9c b3 0a 33 4e d1 6e 33 7d 08 7c 32 02 9d 9c 2f
       3.2293983e-08 5.5604055e-08 1.4670261e-08 2.8487795e-10
0001e0 3c f0 a0 33 4b c7 90 34 48 ec db 30 81 8f ff 32
       7.494279e-08 2.6967095e-07 1.6001502e-09 2.9751165e-08
0001f0 57 15 17 32 ec ba a1 30 f9 1f f2 31 c6 18 46 33
       8.794209e-09 1.1767418e-09 7.046762e-09 4.6123e-08
000200 5f a4 ab 30 3c a6 a8 31 8b 1a ab 34 a8 af 16 34
       1.2488605e-09 4.908342e-09 3.1870545e-07 1.4033742e-07
000210 56 8b 96 34 04 fa 0b 32 fe e7 c5 34 ed 7d 4f 34
       2.8041057e-07 8.147712e-09 3.6862906e-07 1.9324189e-07
000220 7f 14 a8 2d f7 b8 87 32 4a ad d9 32 6e b8 5b 32
       1.910849e-11 1.580018e-08 2.5340928e-08 1.2789412e-08
000230 44 a3 d5 33 f5 48 3d 33 13 6c 2d 32 86 b5 17 30
       9.948283e-08 4.4071346e-08 1.0094499e-08 5.519144e-10
000240 41 39 62 32 b9 88 00 32 68 34 b5 32 75 95 cc 32
       1.3167949e-08 7.481668e-09 2.1095005e-08 2.381669e-08
000250 40 05 28 33 1b 5d 35 30 b5 76 60 32 89 cc ac 32
       3.9120323e-08 6.597973e-10 1.3065507e-08 2.0116447e-08
000260 50 e3 0b 33 c2 91 69 32 d2 62 37 30 8c 52 06 2f
       3.25702e-08 1.35955265e-08 6.6715444e-10 1.2216556e-10
000270 2f 6d e9 31 32 e0 8e 33 86 92 ea 32 e8 17 fb 33
       6.7936052e-09 6.653171e-08 2.7307816e-08 1.1692447e-07
000280 d4 0a 8c 2c 63 13 fa 31 fe e5 59 32 44 3b a7 31
       3.9802415e-12 7.2781616e-09 1.2683357e-08 4.8670774e-09
000290 eb d4 05 31 3e ed e5 2f 41 e7 95 33 0b df ff 31
       1.9475077e-09 4.1823428e-10 6.980418e-08 7.446834e-09
0002a0 1b 0d 5a 33 6d 29 15 2f 24 e2 29 34 16 87 9b 30
       5.0769e-08 1.3566188e-10 1.5821621e-07 1.1316128e-09
0002b0 a8 83 8a 31 69 a2 1b 32 82 d3 8b 32 ad 5e ec 32
       4.031296e-09 9.059115e-09 1.6277912e-08 2.751707e-08
0002c0 48 31 25 35 7c ef b3 31 9b 1f 6b 30 a5 a3 9f 31
       6.1539004e-07 5.236812e-09 8.5537416e-10 4.6461133e-09
0002d0 8e cc 4c 33 6c ce 79 30 2c 3e 24 31 32 80 7c 33
       4.7683493e-08 9.0879015e-10 2.3900482e-09 5.8789915e-08
0002e0 f6 b5 17 31 25 01 82 2e a6 37 02 34 06 76 d6 30
       2.2076825e-09 5.911919e-11 1.2127438e-07 1.5604094e-09
0002f0 d0 29 8c 30 3f a7 29 33 d8 7b 4f 31 fa 66 87 33
       1.0198224e-09 3.9500488e-08 3.0192862e-09 6.305159e-08
000300 55 d8 e5 32 7f 30 42 33 94 f6 e0 32 76 18 10 33
       2.6757485e-08 4.5213252e-08 2.6189163e-08 3.354986e-08
000310 60 4a da 33 aa e6 9e 33 a4 5a 95 31 8e 94 9e 32
       1.0164945e-07 7.399406e-08 4.3467754e-09 1.8461176e-08
000320 3a 45 2b 35 97 c2 01 32 99 1d 32 32 31 00 e3 32
       6.38032e-07 7.553033e-09 1.0367693e-08 2.6426365e-08
000330 d0 2a 85 33 49 1d b8 33 64 e2 72 30 aa 06 fb 33
       6.201083e-08 8.5734946e-08 8.836081e-10 1.16893105e-07
000340 d9 d7 59 32 70 f1 11 31 cf 20 d7 33 00 27 d9 34
       1.26801405e-08 2.1237518e-09 1.00176855e-07 4.0447776e-07
000350 90 8b d0 31 f1 c2 f7 31 18 56 ee 30 e7 c5 ca 32
       6.069463e-09 7.2108084e-09 1.7341248e-09 2.360589e-08
000360 85 be b1 33 0c 7c 28 31 7e 21 ec 33 17 46 9b 32
       8.27686e-08 2.451773e-09 1.09956986e-07 1.8076248e-08
000370 20 2c d8 31 a1 54 85 31 37 30 96 30 ff 4a 69 32
       6.291444e-09 3.8804306e-09 1.092764e-09 1.3579437e-08
000380 91 c3 ef 33 5f f7 8d 33 14 cf 55 34 c8 b4 5d 30
       1.1164878e-07 6.610821e-08 1.9912505e-07 8.065624e-10
000390 34 f9 45 30 c4 53 67 2a 31 1c 17 33 d4 0a 8c 2a
       7.202232e-10 2.0545984e-13 3.5183067e-08 2.487651e-13
0003a0 ed c2 15 31 5a cf 9c 34 66 b0 87 2e 3f 53 d2 2d
       2.1793156e-09 2.9208132e-07 6.170424e-11 2.3911205e-11
0003b0 73 01 9f 32 80 1c a1 35 26 07 89 2c cb 1c e0 30
       1.8510695e-08 1.2003729e-06 3.894568e-12 1.6306329e-09
0003c0 bf 9c 53 35 5a 37 27 35 21 29 1e 34 39 ad 23 31
       7.883172e-07 6.2292895e-07 1.4729859e-07 2.3818088e-09
0003d0 0c c7 26 33 d0 13 8f 31 79 83 54 33 c5 ed 1b 36
       3.883092e-08 4.1641e-09 4.947967e-08 2.32352e-06
0003e0 b4 07 f1 32 5a 51 40 35 a0 28 be 32 82 0e 6b 33
       2.8059596e-08 7.1643956e-07 2.2137385e-08 5.4728396e-08
0003f0 ec d0 8a 34 4d c1 81 33 9d e4 eb 34 e6 5d dd 34
       2.5856514e-07 6.042192e-08 4.39385e-07 4.1232778e-07

exp_avg f4 [3]
000000 2a 95 26 ba 45 bc c4 bb e7 8e d9 3b
       -0.00063546246 -0.006003889 0.0066393497

exp_avg_sq f4 [3]
000000 e8 f6 0f 3a aa 6a cc 39 e5 22 13 3a
       0.0005491809 0.00038989383 0.00056128047
